codes/100m/model/wind_speed_predictor.pth (torch, 14090 bytes, 5 tensors)

fc.0.weight f4 [64, 10]
0	0x3ebf32f8	0.37343574
1	0xbd989074	-0.07449427
2	0xbc97eb8d	-0.018544937
3	0xbdf252ce	-0.118322
4	0x3e0a265a	0.13491192
5	0xbe65f631	-0.22457196
6	0x3e70d94a	0.23520389
7	0x3dc406e3	0.09571626
8	0xbdb088d8	-0.08619851
9	0xbe4a0a16	-0.1973041
10	0x3ead487e	0.3384437
11	0x3d6cb5ec	0.05779068
12	0xbc1c601a	-0.009544397
13	0xbdd7821f	-0.105228655
14	0x3db0abd5	0.08626524
15	0x3c633ea4	0.013869915
16	0xbc80f8d3	-0.015743649
17	0x3e2fbd72	0.17162111
18	0xbe369ed3	-0.17834024
19	0x3ded6534	0.115915686
20	0x3e84f2b7	0.25966427
21	0x3ebae2b1	0.36501077
22	0xbc381d2f	-0.011237427
23	0x3cc330d0	0.023826987
24	0xbdc9143c	-0.098183125
25	0x3dbe89e0	0.09303641
26	0xbe28b498	-0.16475141
27	0xbe459b8d	-0.19297619
28	0x3e3409a0	0.17581797
29	0x3d819b36	0.06328432
30	0x3ea21bcd	0.31661835
31	0x3e45e62d	0.19326086
32	0xbc8d1548	-0.017222062
33	0xbd21497c	-0.03937672
34	0x3c6e3411	0.014538781
35	0x3e83e158	0.2575786
36	0xbe878979	-0.2647207
37	0x3e1bbf30	0.15209651
38	0xbe174f5a	-0.14776364
39	0x3e6797e5	0.22616537
40	0x3e9fb2fd	0.31191245
41	0x3c89a193	0.016800677
42	0xbc0770a5	-0.008266603
43	0x3e1ddbcd	0.15415879
44	0xbe2e6a25	-0.17032678
45	0x3a784156	0.0009470185
46	0xbb2327ca	-0.0024895542
47	0xbd5006c9	-0.05078772
48	0x3d5406a6	0.051764153
49	0x3dd9894f	0.10621893
50	0x3ed455be	0.41471666
51	0xbe0eb31c	-0.13935512
52	0x3bb492ac	0.0055106487
53	0xbde2464d	-0.11048565
54	0x3e07b23a	0.13251582
55	0xbe189a06	-0.14902505
56	0x3e31dd11	0.17369486
57	0xbdcdb72b	-0.10044702
58	0x3dfabbdb	0.12242862
59	0x3e88a1f0	0.26686049
60	0x3ebe6165	0.3718368
61	0x3e9a5ab4	0.30147326
62	0xba22cd6b	-0.0006210419
63	0xbd738cf7	-0.059460606
64	0xbc7fe57f	-0.015618681
65	0x3e5f2a7b	0.21793549
66	0xbe8256b3	-0.2545677
67	0xbd4d3c4c	-0.05010633
68	0x3d1dee09	0.038557086
69	0x3e47b381	0.19502069
70	0x3e3d9aac	0.18516034
71	0x3eb9b68b	0.36272082
72	0x3cce92ec	0.025216542
73	0x3df9aa3d	0.121906735
74	0xbe3e8c7d	-0.1860828
75	0xbe427f32	-0.18993834
76	0x3e37a2f9	0.17933263
77	0xbe068a62	-0.13138726
78	0x3df640cb	0.12024077
79	0xbe1e3f60	-0.15453863
80	0x3f07e8a6	0.5308937
81	0xbe3fa30f	-0.18714546
82	0xbb2508bb	-0.0025182206
83	0x3d548c93	0.051891875
84	0xbbb48938	-0.005509522
85	0x3cd007c4	0.025394328
86	0xbc9868c1	-0.018604638
87	0xbdd6b1f9	-0.10483164
88	0x3dcdcb65	0.1004856
89	0xbdc8135a	-0.09769316
90	0x3e3c8984	0.18411833
91	0x3e4d6cf1	0.20061089
92	0x3c7ce1b3	0.01543467
93	0x3dbb54a9	0.09147007
94	0xbe1a459e	-0.1506562
95	0xbd9806fa	-0.07423206
96	0x3d80e773	0.062941454
97	0xbe476c3f	-0.19474886
98	0x3e315844	0.17318827
99	0x3e14400e	0.1447756
100	0x3e54e5a8	0.20790732
101	0x3da19943	0.078905605
102	0x3a819862	0.0009887333
103	0x3d889c09	0.06670386
104	0xbd871b31	-0.06596983
105	0x3d415364	0.047198668
106	0xbd2944e2	-0.041325457
107	0x3e2fbadb	0.17161123
108	0xbe38447e	-0.17994878
109	0x3dd5b1e7	0.10434323
110	0x3ec88490	0.39163637
111	0xbd19c28b	-0.037539046
112	0xbb13291c	-0.0022454923
113	0x3e56918a	0.20953956
114	0xbe452016	-0.19250521
115	0xbded2402	-0.115791336
116	0x3dd4b15a	0.103853896
117	0xbde2fe12	-0.11083616
118	0x3dfb430e	0.12268649
119	0xbdd422d2	-0.10358204
120	0x3ef6a781	0.4817467
121	0x3d1d26be	0.038367026
122	0x3b36b82c	0.002788077
123	0xbd4532c4	-0.048144117
124	0x3d4d175f	0.050071117
125	0x3dd026aa	0.101636246
126	0xbda58beb	-0.08083328
127	0xbd842024	-0.06451443
128	0x3da0880b	0.07838448
129	0xbe164bf7	-0.14677416
130	0x3f0af397	0.5427794
131	0xbd26bbd6	-0.040706478
132	0xbacb3bc1	-0.0015505479
133	0xbc8939c8	-0.016751185
134	0x3c2f6f7f	0.010707735
135	0x3e8d6a45	0.2762014
136	0xbe84f69e	-0.25969404
137	0x3c88dc78	0.01670669
138	0xbd385a36	-0.045007907
139	0x3e00eece	0.12591097
140	0x3ea60b04	0.3243028
141	0xbd9b1001	-0.07571412
142	0x3b8f191a	0.004367006
143	0x3e4651c7	0.19367133
144	0xbe362d84	-0.177908
145	0xbbdad678	-0.0066783987
146	0x3c631057	0.013858876
147	0x3d21c07d	0.03949021
148	0xbc8d9ceb	-0.017286738
149	0x3e37fdac	0.17967862
150	0x3f090ba0	0.53533363
151	0xbe058888	-0.13040364
152	0x3b4a4f0c	0.003086987
153	0x3e472016	0.19445834
154	0xbe2ff238	-0.17182243
155	0x3e09388d	0.13400479
156	0xbe000991	-0.1250365
157	0x3e748ec0	0.2388258
158	0xbe5a48ad	-0.21316786
159	0x3e4467b8	0.1918019
160	0x3ebe5915	0.3717734
161	0xbd668a79	-0.0562844
162	0xbad00c8c	-0.001587288
163	0xbddc5135	-0.107576765
164	0x3ddcaf5a	0.10775633
165	0x3da4a3aa	0.08039029
166	0xbdae0b5c	-0.084982604
167	0xbdfd615d	-0.12372086
168	0x3e13ff2b	0.14452808
169	0x3c89ac0f	0.016805677
170	0x3ef00c75	0.46884504
171	0x3dadce53	0.08486619
172	0xbc088a91	-0.008333818
173	0xbdba8a6e	-0.091084346
174	0x3d5bf654	0.053701714
175	0x3e19d103	0.15021138
176	0xbe1f2320	-0.15540743
177	0xbb36ad36	-0.0027874238
178	0xbd7ae1c7	-0.061250474
179	0x3dfb0b7b	0.12258049
180	0x3e6e8a45	0.23294933
181	0x3e4bd54e	0.19905588
182	0x3c61b99b	0.013777162
183	0x3e3462a9	0.17615761
184	0xbe7d7ab8	-0.24753845
185	0xbe8ea803	-0.27862558
186	0x3e8e0649	0.2773917
187	0xbd30a700	-0.043128014
188	0x3d4916d5	0.04909404
189	0x3d89c1f0	0.06726444
190	0x3eccd4f8	0.40006232
191	0x3cd1224d	0.025529051
192	0x3a5c7837	0.00084102474
193	0xbd32443a	-0.043522097
194	0x3ca56c00	0.0201931
195	0x3cf6055c	0.030031852
196	0xbcbc4c12	-0.022985492
197	0xbe03de11	-0.1287768
198	0x3df0fb2c	0.11766657
199	0xbe0c5cbc	-0.1370725
200	0x3eede404	0.46463025
201	0xbe05378a	-0.13009468
202	0xbc7ecc0f	-0.015551581
203	0x3cd2408c	0.025665544
204	0x3cc94e22	0.02457339
205	0x3dc8284a	0.097733095
206	0xbda59028	-0.08084136
207	0xbd011a3b	-0.031519156
208	0x3cc771e1	0.024346294
209	0x3ded7a0e	0.11595546
210	0x3eb8cf2f	0.3609557
211	0x3df21a25	0.11821393
212	0xbc012fb8	-0.007884912
213	0xbe1231b7	-0.14276777
214	0x3dc1d3b2	0.09464206
215	0x3d0d5a26	0.0345098
216	0xbd46f2ce	-0.0485714
217	0x3de3a544	0.11115506
218	0xbe153f11	-0.14574839
219	0x3deb792d	0.11497722
220	0x3e78f534	0.24312288
221	0x3e636137	0.22205053
222	0x3a186a54	0.0005814184
223	0x3d96560f	0.07340633
224	0xbe022a71	-0.12711503
225	0xbe4e5615	-0.20150025
226	0x3e22a5e9	0.15883602
227	0xbe256ddd	-0.16155191
228	0x3ddf8ee3	0.10915925
229	0xbe640502	-0.22267535
230	0x3ee44fb0	0.44592047
231	0x3d8e216a	0.06939967
232	0x3bd432d6	0.0064757867
233	0x3bdbe5c8	0.0067107417
234	0xbca7dee4	-0.020492025
235	0xbcc23356	-0.02370612
236	0x3c5a6dda	0.013331855
237	0x3dd33a9e	0.10313915
238	0xbde2cdbc	-0.11074397
239	0x3e36866b	0.17824714
240	0x3e92a900	0.28644562
241	0xbce35bb2	-0.027753685
242	0x3b4ec743	0.0031551875
243	0x3c99762f	0.018733112
244	0xbba59952	-0.0050536776
245	0x3de68c6c	0.11257252
246	0xbe07cc5a	-0.13261548
247	0x3e2cdeb3	0.16881828
248	0xbe2f95a3	-0.17146926
249	0x3e6a397f	0.22873496
250	0x3ebe59a7	0.37177774
251	0xbdabdd16	-0.08391778
252	0xb91bca69	-0.00014857356
253	0x3c3fd2f3	0.011708009
254	0xba9d407e	-0.001199737
255	0xbe287605	-0.16451271

fc.0.bias f4 [64]
0	0x3c370bb7	0.011172227
1	0x3eac1a47	0.33613798
2	0x3e825962	0.2545882
3	0x3e7af4fa	0.24507514
4	0x3f06c568	0.5264497
5	0xbddecfc3	-0.10879471
6	0x3d661f08	0.056181937
7	0xbe0ed2a2	-0.13947538
8	0x3ed50f41	0.416132
9	0x3efbfb6e	0.49215263
10	0x3ee0da57	0.4391658
11	0x3e901502	0.28141028
12	0x3ed7417f	0.42042157
13	0xbd83278b	-0.064040266
14	0x3eb9e47c	0.36307132
15	0x3e838d69	0.25693825
16	0x3ef28a35	0.4737107
17	0xbe0a278f	-0.13491653
18	0x3dba2901	0.09089852
19	0x3ee0002a	0.43750125
20	0xbd24fe2f	-0.04028147
21	0x3f02c305	0.51078826
22	0x3e35f854	0.17770511
23	0x3ca49f5f	0.020095525
24	0xbdbe408e	-0.092896566
25	0x3db54535	0.08851091
26	0x3e21edb7	0.15813337
27	0x3e9bc52a	0.30423862
28	0xbd09994b	-0.033593457
29	0x3e6cc837	0.23123251
30	0x3d12efef	0.03587335
31	0x3dcd235a	0.100165084
32	0xbd8e048f	-0.06934463
33	0x3e4598ac	0.19296521
34	0x3e82ea9e	0.25569624
35	0x3dbce3ae	0.09223114
36	0xbed05fc3	-0.4069806
37	0x3ea4a73c	0.3215884
38	0x3db5cfca	0.08877523
39	0x3e823310	0.25429583
40	0x3c368bd3	0.011141735
41	0x3c4e2618	0.012582324
42	0x3df21c67	0.118218236
43	0x3ec65980	0.38740158
44	0x3e4ee065	0.20202787
45	0xbda2e302	-0.079534546
46	0xbf06d241	-0.5266457
47	0x3cebb7d5	0.028774181
48	0xbcc7bbfe	-0.024381634
49	0x3f122710	0.57090855
50	0x3e915b9b	0.28390202
51	0xbdc1543c	-0.094398946
52	0xbdee05ee	-0.11622225
53	0x3f10ceef	0.56565756
54	0xbe7e1166	-0.24811324
55	0xbd086270	-0.033297002
56	0x3e4ba6fe	0.19887921
57	0x3e85faba	0.26167852
58	0xbf4fdfd6	-0.8120092
59	0x3ee0439f	0.4380159
60	0xbea7957d	-0.32731238
61	0xbe23b95e	-0.1598868
62	0xbda5fe31	-0.08105124
63	0xbdc3fd84	-0.09569839

fc.3.weight f4 [32, 64]
0	0xbf1c0e34	-0.6095917
1	0xbd611cba	-0.054959036
2	0x3d76df04	0.060271278
3	0xbe39ac4a	-0.1813213
4	0x3e10f752	0.14156845
5	0xbe325e4b	-0.17418782
6	0xbe7b70fd	-0.2455482
7	0xbcfa9038	-0.030586347
8	0x3e058822	0.13040212
9	0x3d1937e1	0.037406806
10	0x3d9592d4	0.07303396
11	0xbe8885ec	-0.26664674
12	0xbbe447bb	-0.0069665588
13	0xbe83a4c0	-0.25711632
14	0x3dcfbcbb	0.10143419
15	0xbe84fcc6	-0.259741
16	0x3e62074e	0.22073099
17	0xbe4d8d24	-0.20073372
18	0xbda42b25	-0.08016042
19	0xbcc6cf1d	-0.024268681
20	0xbf06d232	-0.5266448
21	0x3dd32d47	0.1031137
22	0xbdb48865	-0.08815078
23	0xbf063b6d	-0.52434427
24	0xbed4da3e	-0.41572756
25	0xbf1e343f	-0.6179847
26	0xbf0ba105	-0.5454257
27	0x3dcc3fe8	0.09973127
28	0xbd2aa8d1	-0.041664902
29	0xbeaf4b43	-0.34237108
30	0xbf657415	-0.8963025
31	0x3e1139e4	0.1418224
32	0xbe17d95b	-0.14829008
33	0xbd3f0259	-0.0466331
34	0xbedddb3a	-0.4333132
35	0xbf24bc0d	-0.6434944
36	0xbe090deb	-0.13384216
37	0x3d23c130	0.03997916
38	0xbf4e3250	-0.8054552
39	0xbde7b283	-0.11313345
40	0x3d9efa18	0.07762545
41	0xbf11af39	-0.56907994
42	0xbee0fa05	-0.4394075
43	0x3e30e016	0.17272982
44	0xbeb7e856	-0.35919446
45	0xbe953684	-0.29143155
46	0x3edda825	0.43292347
47	0xbef139e0	-0.47114468
48	0x3dcb0d0a	0.099145964
49	0x3db9c749	0.09071214
50	0xbe224dc2	-0.15849975
51	0xbcc9865d	-0.024600202
52	0xbb236a7b	-0.0024935293
53	0x3d6a2802	0.05716706
54	0xbdc5852c	-0.09644541
55	0xbece0229	-0.40236023
56	0xbf14d50a	-0.5813757
57	0xbe73df69	-0.23815693
58	0xbd1f6da0	-0.038922906
59	0x3df758b8	0.12077469
60	0xbeca3cd0	-0.3949952
61	0xbe5b9dd9	-0.21446933
62	0xbe8b0902	-0.2715531
63	0xbec4c0e2	-0.38428408
64	0x3c2c0998	0.010500334
65	0xbd6234a0	-0.05522597
66	0x3e0752f2	0.13215235
67	0xbd177a04	-0.036981598
68	0x3ced3b42	0.02895892
69	0x3d7b1a98	0.06130466
70	0xbd231691	-0.039816443
71	0x3e01b3dd	0.12666269
72	0x3d428558	0.047490448
73	0x3dc4df71	0.096129306
74	0x3def9c88	0.11699778
75	0x3ddf6051	0.10907043
76	0xbda86d7e	-0.08224009
77	0x3c3239cd	0.010878039
78	0x3e35592c	0.17709798
79	0x3d9bf0fe	0.07614325
80	0x3db95ade	0.09050535
81	0xbd2bf7f0	-0.0419845
82	0xbdb572b3	-0.08859768
83	0x3d89b4c8	0.067239344
84	0x3dcfddf3	0.10149755
85	0xbd7d5894	-0.061852053
86	0x3dbc9073	0.09207239
87	0x3e2293c7	0.15876685
88	0x3d96b003	0.0735779
89	0x3e56d18a	0.2097837
90	0xbd6f18b4	-0.058373168
91	0xbc6f120c	-0.014591705
92	0x3dc1aa7a	0.09456344
93	0xbd2f7305	-0.0428343
94	0x3c4964b2	0.012292074
95	0x3de8872b	0.11353906
96	0xbd49e72d	-0.049292732
97	0x3dd6bc51	0.10485137
98	0x3ceae7de	0.028675016
99	0xbd70d759	-0.05879912
100	0xbcd53f11	-0.026031049
101	0x3d88058a	0.066416815
102	0xbd840a26	-0.06447248
103	0x3d99a99f	0.07503056
104	0x3da6d5e4	0.08146265
105	0xbd4825d4	-0.0488642
106	0xbd43fd39	-0.047848914
107	0xbc856d97	-0.016287608
108	0x3e402cd0	0.18767095
109	0x3e4dd78d	0.20101757
110	0xbdc2b2ac	-0.09506735
111	0x3d9289c4	0.07155183
112	0x3d1324ba	0.035923697
113	0xbcc5fff0	-0.024169892
114	0x3d3678bc	0.044548735
115	0x3e0b2e66	0.13591918
116	0x3e232d9a	0.15935364
117	0x3c4bf2c6	0.012448018
118	0x3d90795b	0.07054397
119	0x3db00859	0.08595342
120	0xbd2ca5c4	-0.042150274
121	0xbd85093c	-0.06495902
122	0xbdd248f8	-0.10267824
123	0x3e02f7e9	0.12789883
124	0xbc91fefa	-0.017821778
125	0x3e21f947	0.15817748
126	0x3d99f7fc	0.075180024
127	0x3d17eb94	0.0370899
128	0x3e2305c0	0.15920162
129	0x3e19edfc	0.1503219
130	0x3c972141	0.018448474
131	0xbc8d661e	-0.017260607
132	0x3e21bc2f	0.15794443
133	0x3d5a5531	0.0533039
134	0x3dc251ce	0.09488259
135	0xbce67cc4	-0.028135665
136	0x3dc2ca9c	0.09511301
137	0x3ce47c08	0.027891174
138	0x3dcf1797	0.10111921
139	0x3d7f4bfd	0.062328327
140	0x3d4fea8f	0.050760802
141	0xbdbc48c0	-0.091935635
142	0xbd6cc285	-0.057802696
143	0xbd766531	-0.060155097
144	0x3df2ceb6	0.11855833
145	0xbd994bc2	-0.07485153
146	0x3c5680ae	0.013092203
147	0x3dc7b761	0.097517736
148	0x3d2ec73c	0.042670473
149	0x3d6652bc	0.056231245
150	0x3cbf8233	0.023377514
151	0x3c246a64	0.010035131
152	0x3de4a9e1	0.11165214
153	0x3e078d1f	0.13237427
154	0x3baeba14	0.005332241
155	0xbcce8092	-0.025207791
156	0x3d28b86d	0.041191507
157	0x3e32d9f5	0.17465957
158	0x3da3bb09	0.079946585
159	0x3d975ba8	0.07390529
160	0xbdb31d5d	-0.08745835
161	0xbda8bb36	-0.08238833
162	0x3d6bc8ee	0.05756467
163	0x3d9b70a2	0.075898424
164	0xbd40965a	-0.047018386
165	0xbbc1b0c0	-0.005910963
166	0xbda59e29	-0.08086807
167	0x3da5e746	0.081007525
168	0xbdc4e8a7	-0.096146874
169	0x3e21b95f	0.1579337
170	0x3dcebded	0.10094819
171	0xbc9f7169	-0.019463258
172	0x3e3e12f9	0.18561925
173	0x3dd1f904	0.10252574
174	0xbd82bca3	-0.06383636
175	0xbd0787a9	-0.03308836
176	0xbcbf5e29	-0.023360329
177	0xbd7b0db1	-0.061292354
178	0xbcd9ed58	-0.026602432
179	0x3cbaf30a	0.022820968
180	0x3e2163bc	0.15760702
181	0xbd4b9974	-0.04970689
182	0xbd4db932	-0.050225444
183	0x3cc3bfae	0.023895111
184	0xbd859985	-0.06523422
185	0x3e102bf6	0.1407927
186	0xbe70b776	-0.23507485
187	0x3e2d2738	0.16909492
188	0xbe3afbb1	-0.18260075
189	0x3d9797ff	0.07402038
190	0xbcbf73eb	-0.023370704
191	0xbd3b70f7	-0.04576203
192	0xbde39a69	-0.11113436
193	0xbf0cc50a	-0.5498816
194	0x3d14b09b	0.036301237
195	0xbe540e73	-0.20708637
196	0xbf3bfb1f	-0.73430055
197	0xbe4fc7b6	-0.20291027
198	0xbdf6b375	-0.120459475
199	0xbd89ce63	-0.06728818
200	0xbf815044	-1.010262
201	0xbe4f2738	-0.20229805
202	0xbef59253	-0.479632
203	0xbd9a6c15	-0.07540146
204	0xbec5cf8a	-0.38634902
205	0xbd913309	-0.07089812
206	0xbf42d414	-0.76104856
207	0xbed6c9bd	-0.4195079
208	0xbf6a467b	-0.91513795
209	0xbd60608a	-0.054779567
210	0xbd671436	-0.05641576
211	0xbe8bfb31	-0.2734008
212	0xbdc5b611	-0.09653867
213	0xbf11e9d3	-0.5699741
214	0xbe76fb63	-0.24119334
215	0x3b3a61a8	0.0028439555
216	0xbe873f34	-0.26415408
217	0xbe46cfbe	-0.19415185
218	0x3d129405	0.035785694
219	0xbf71a8cb	-0.9439818
220	0xbdf27fb7	-0.11840766
221	0xbe43f591	-0.19136645
222	0xbe2b1cf8	-0.1671027
223	0xbceb106a	-0.02869435
224	0x3d85d52e	0.065348014
225	0xbdd19fb4	-0.10235539
226	0xbe0e16bc	-0.1387586
227	0xbe5148cc	-0.20437926
228	0xbc66f42d	-0.014096302
229	0xbf831020	-1.0239296
230	0x3c3e4fad	0.011615676
231	0xbf58ca91	-0.8468409
232	0xbcd449a6	-0.025914025
233	0xbe4b5b78	-0.19859111
234	0xbdb3446c	-0.08753285
235	0xbf3af38a	-0.7302786
236	0xbe5f6a51	-0.218179
237	0xbd7fb142	-0.062424906
238	0x3e7dfa94	0.24802619
239	0xbe15e7a5	-0.14639147
240	0xbb1a76b6	-0.0023569292
241	0xbf424442	-0.75885403
242	0xbeb6a8b7	-0.35675594
243	0xbd950d1e	-0.072778925
244	0xbdd626a5	-0.104565896
245	0xbed7d482	-0.42154318
246	0x3df4da62	0.11955716
247	0xbd5d71b2	-0.054063506
248	0xbe6c1dbf	-0.23058222
249	0xbe14a3f5	-0.1451567
250	0x3edd9a75	0.43281904
251	0xbf491ff0	-0.7856436
252	0xbde3bb43	-0.11119702
253	0xbd2560c6	-0.040375493
254	0xba0349ed	-0.0005008269
255	0xbe1cb6d8	-0.15304124

fc.3.bias f4 [32]
0	0x3efb6a18	0.4910438
1	0x3fab262d	1.3371025
2	0x3f894ef4	1.072722
3	0x3f2925de	0.66073406
4	0x3f809479	1.004531
5	0x3f677be1	0.904234
6	0x3f24a360	0.6431179
7	0x3f07a1fe	0.52981555
8	0x3f912407	1.133912
9	0x3f74af93	0.95580405
10	0x3f8f266c	1.11836
11	0x3f69990c	0.91249156
12	0x3f75fad9	0.9608589
13	0x3f4a4dbb	0.7902486
14	0x3f61777a	0.8807293
15	0x3f81e3d0	1.0147648
16	0x3f83c1fc	1.0293574
17	0x3f80b6e5	1.0055815
18	0x3f898426	1.0743454
19	0x3f846935	1.0344607
20	0x3f901c32	1.1258605
21	0x3f79275f	0.973257
22	0x3f816fca	1.011224
23	0x3f95a342	1.1690447
24	0x3f811c90	1.0086842
25	0xbfc80710	-1.5627155
26	0x3f5ba4a7	0.85798115
27	0x3f3b63ea	0.7319933
28	0xbdf5e526	-0.12006597
29	0x3eff9178	0.4991567
30	0x3ea1c17d	0.31592932
31	0x3fab821e	1.3399084

fc.5.weight f4 [1, 32]
0	0xbf379246	-0.7170757
1	0x3e9afa6e	0.30269188
2	0x3e83c329	0.25734833
3	0xbf88654c	-1.0655913
4	0x3eaee43a	0.34158498
5	0x3eb7ad47	0.35874388
6	0xbf22a24c	-0.63528895
7	0xbf0966f4	-0.5367272
8	0x3ebebb02	0.3725205
9	0xbf6c1d85	-0.92232543
10	0x3ee093a8	0.43862653
11	0x3e954eb5	0.2916161
12	0x3eba918f	0.36439177
13	0xbf7b9458	-0.9827323
14	0x3e988b13	0.29793605
15	0x3e88e155	0.26734415
16	0x3ea1d1be	0.31605333
17	0x3e8b4547	0.27201292
18	0x3eb17c58	0.3466518
19	0x3ea5e5c3	0.32401857
20	0x3ea79358	0.32729602
21	0x3ebde430	0.37088156
22	0x3e6d46ab	0.23171489
23	0x3eed4978	0.46345115
24	0x3ed80fa0	0.4219942
25	0xbf4d82b1	-0.80277544
26	0x3eb32d95	0.34995714
27	0xbf95e1d6	-1.1709545
28	0xbe1b5744	-0.15170008
29	0xbf5400c6	-0.8281368
30	0x3ed261b1	0.41090158
31	0x3ea202cf	0.31642768
