codes/10m/model/wind_speed_predictor2.pth (torch, 13844 bytes, 5 tensors)

fc.0.weight f4 [64, 9]
00000000: fd53 6e3e 06d2 20be 3879 fbbd a215 a7be
00000010: 057f 76be a87f 213d 8016 62be 54c9 13be
00000020: c01c 8bbe 2599 2abf 56df 893e 4c89 723c
00000030: 4480 1fbe 4958 063e 723a 11be 1a0a 073e
00000040: 6d02 213b 78c8 22be 047f ae3e 867f 133e
00000050: 0795 27be d7af a4be a108 61be 7fe1 663e
00000060: b52d d1be c856 53be cb0e c3bd 0b01 f13e
00000070: ab1f 2d3e 0bb1 eb3b cbb5 97be 5141 cbbd
00000080: ec64 433e 84ce 4e3d fbd0 293e 1650 ec3d
00000090: 9973 a43e 192c 253d 8952 63bd 8d62 1fbd
000000a0: 5145 1c3e 353c 22be 9281 183e 442f 4fbe
000000b0: 56ad 4b3d f62b 093f 617b bdbd 0131 d43c
000000c0: 64d9 9cbe 1770 cebd 438a 843d 568a 5abe
000000d0: 8687 833e 6618 793e a25e d9be eba9 be3d
000000e0: 0425 623e a131 033e 6cc7 40be 8258 23bd
000000f0: c3d2 f2bd 20cb 743e a012 4e3e 5250 713e
00000100: 0fd7 e63c cfc7 543e 5678 99be 3b09 38be
00000110: d5ef d93d 4a8c 54bd 5285 c73c 7b2a a73d
00000120: 6df7 5dbe 4a7a 97be 89a7 693e 391b 893e
00000130: cf99 4b3c 1387 1ebe 76d9 8a3e 18f6 d43e
00000140: eea0 023e 247f 7ebe 7614 bd3d 414c ea3d
00000150: 9d77 053e 5f76 b8bd 809d 993e cd91 65be
00000160: 9b9f 0abe 06f3 a8bd be17 ca3e 5d87 81bd
00000170: 1c9f b13e 3d31 a03e 1b9f dcbe da82 693e
00000180: f1df bfbc 47ec 42be 56d5 943a acaf db3e
00000190: 55d8 553d d995 c13d f875 333d 65fa a53d
000001a0: 5076 2a3e f719 283e 1a7b 8dbe 5bf4 b43d
000001b0: 7aa0 83bd d2c1 193d d27b f6bd 6720 8cbe
000001c0: cbcc 84be 582c 513d c47b 77bc 9e5e 16bd
000001d0: 7b3e 80bd 7099 b63e 1471 233e 1053 dc3d
000001e0: e83b 69be f5d8 46be e0c6 2e3e 46b1 3ebe
000001f0: e042 1b3e b8ac a43e fcbe db3e 47bd 34bd
00000200: cf73 06bd f703 8a3d 65d9 193b ecbc fabb
00000210: 4790 65be 8011 333e 5688 f93c 39cb 753e
00000220: 8eae 52bb 8abf f8bd 01c7 ea3d e4f6 873d
00000230: fafd 52bd 64d2 5b3d 517b 7cbd 58cf 7b3e
00000240: 10ff 713e 0f4d 5eba e311 39be f2a8 943d
00000250: b035 8fbd 5d08 983d 1ec1 cc3d c2b6 00be
00000260: 6081 08bd 308d 7fbc 91eb 99be 7480 9fbe
00000270: cedd 303e ad35 853c 3264 6d3e faa4 86be
00000280: e7f8 70be 005c 503e e4f9 a63e 15c8 43bd
00000290: 3e56 8bbd 0e12 1d3c 9495 8dbe 4c61 1d3e
000002a0: 69d2 2ebc ce3a 393e 0018 103a 844d e23e
000002b0: f710 453d 9c60 893e c300 b2be 4328 953d
000002c0: e6c8 a5bd 9ca5 c2bd db2c 7b3d c648 b53d
000002d0: d0a3 a73e 5ad2 573d 50f2 173c ee3e 80bd
000002e0: 7095 2fbd 5861 233d c866 703e a853 2ebe
000002f0: 0495 9f3e 8c31 3dbe cc42 323e 142e d3bd
00000300: d34e 1ebd e331 d7be 0684 033e dc8c a7be
00000310: 152b 48bd 6309 633e 9176 b03e c3f0 20bc
00000320: d3de 1e3e b149 9fbb 5ed0 383e 02b6 f9bd
00000330: 61df a1bd fcdc ff3d 1385 113e ed80 1b3f
00000340: 4485 003d 768a 2f3d 815c 53bc 2438 48bd
00000350: 6707 153e c1e0 4a3d 69d1 b2bd 137b 683e
00000360: eef4 d63e aa11 59b8 e14a 3b3e f3f3 8bbe
00000370: fff4 b0bd 93ff 9a3d 3f27 94bd ce75 cd3c
00000380: fe52 3abe 7276 c33e 19cc 733c 4e72 353d
00000390: 0ab0 31be b79a 03be 836c 0b3e 2050 07be
000003a0: a14b a73d f076 9dbe 87b7 44be 6607 3ebb
000003b0: a70d e03d 82c6 bc3e a55f 9d3d 11db 5a3e
000003c0: d766 f73d 7bf5 873e 07b9 a9be 54e2 af3e
000003d0: a09e cd3c 1755 433e 04f6 72bd 472c 8ebd
000003e0: 3ed5 1c3d ccfa 083c ea1f 0eba 8669 42be
000003f0: c325 cb3c 860f bcbd 6805 73be 4d88 a03d
0.23274226 -0.15705118 -0.1227898 -0.32633692 -0.24071892 0.039428383 -0.22078896 -0.1443227
-0.27170372 -0.6663993 0.26928204 0.014803242 -0.15576273 0.13119616 -0.14182451 0.13187447
0.0024568096 -0.15896785 0.3408128 0.14404115 -0.16365443 -0.32165405 -0.21975948 0.22546957
-0.40855184 -0.20638573 -0.09524306 0.47071108 0.16906612 0.007192736 -0.29630885 -0.099245675
0.19081467 0.050489917 0.16583626 0.11538713 0.32119444 0.040325258 -0.055498634 -0.038912345
0.15260817 -0.1584328 0.14893177 -0.20232874 0.049725853 0.53582704 -0.09252048 0.025902273
-0.30634606 -0.10079973 0.06471684 -0.21341833 0.25689334 0.24325714 -0.42455012 0.09309753
0.22084433 0.128119 -0.18826073 -0.03987933 -0.11856606 0.23905611 0.20124292 0.23565796
0.02817872 0.20779346 -0.29974622 -0.17972271 0.106414475 -0.051891603 0.024355564 0.081623994
-0.21676417 -0.29585487 0.22817816 0.26778582 0.012426808 -0.15481214 0.27119035 0.41594005
0.12756702 -0.24853188 0.09232418 0.114403255 0.1303391 -0.090069525 0.30002975 -0.224189
-0.13537447 -0.08249478 0.3947124 -0.063246466 0.34691703 0.31287566 -0.43090138 0.22803822
-0.023422213 -0.19035445 0.0011355083 0.42907465 0.052208263 0.09452409 0.043813676 0.081043996
0.16646695 0.16416155 -0.27632982 0.088356696 -0.06427093 0.037538357 -0.120353356 -0.2736847
-0.25937495 0.05106768 -0.015105192 -0.036711328 -0.06261917 0.3566394 0.15961105 0.107580304
-0.22776759 -0.194187 0.17068052 -0.18622312 0.1516223 0.32163024 0.42919147 -0.04412582
-0.032825287 0.067390375 0.0023475525 -0.007651916 -0.22418319 0.17487144 0.030460518 0.24003305
-0.00321475 -0.12145908 0.11463738 0.066388875 -0.051511742 0.05366744 -0.06164104 0.24590814
0.23632455 -0.00084801106 -0.1807323 0.07258786 -0.06992662 0.0742347 0.09997772 -0.12569717
-0.033326507 -0.015597627 -0.30062535 -0.3115269 0.17272112 0.016260946 0.23182753 -0.26297742
-0.23532449 0.20347595 0.32612526 -0.047798235 -0.06803559 0.009586824 -0.27653182 0.15369147
-0.010670283 0.18088838 0.00054967403 0.44199765 0.048111882 0.2683152 -0.34766206 0.0728307
-0.08094959 -0.09504244 0.061322074 0.08851771 0.32742167 0.05269084 0.00927408 -0.06262003
-0.042867124 0.039887756 0.23476708 -0.170241 0.31168377 -0.18475932 0.17408293 -0.10311523
-0.03864939 -0.42030248 0.12843332 -0.32724655 -0.04886921 0.2217155 0.3446546 -0.009823027
0.15514688 -0.0048610796 0.18048236 -0.12192918 -0.07903934 0.12493321 0.1421092 0.607436
0.031377092 0.042856656 -0.012900473 -0.048881665 0.14553605 0.04953075 -0.08731348 0.22703199
0.41983742 -5.1753283e-05 0.18290283 -0.27334556 -0.08640479 0.07568278 -0.07234048 0.025080588
-0.18195722 0.38176304 0.014880204 0.044298463 -0.1735231 -0.12851988 0.13615613 -0.13214159
0.08168722 -0.30754805 -0.19210635 -0.002899611 0.10940104 0.368702 0.07684258 0.2137263
0.12080162 0.26554474 -0.33148977 0.34352362 0.025100052 0.19075428 -0.05931665 -0.06942039
0.0382893 0.008360576 -0.00054216257 -0.18985566 0.02479828 -0.09182648 -0.23732531 0.07838497

fc.0.bias f4 [64]
00000000: 4891 d73e 7cdb d8be 556f c93d 088e bc3d
00000010: 6888 ea3e 142c 4cbc 1e5c 09be 0c89 873e
00000020: d7b2 04be f31e 863e 4ca9 ae3b 329e 18be
00000030: dea3 063f d260 a63e ee85 7c3e 9f7b d73e
00000040: fae4 c23e 447c aebe f4ad 993e ce26 7d3e
00000050: 889b 773e 8c36 163e 8937 dc3e 0a28 3d3e
00000060: e76d 9c3e 137d 103f 8591 16bd b25c bd3e
00000070: 2565 89be b64b c63d 76d9 843e 3739 073e
00000080: a61e 6bbe 8ecc d13e a5d2 453e d922 cd3e
00000090: c432 373d bb0b 0abf 32ba 063f f8a8 f8be
000000a0: 1f4e 9d3d 9300 ac3e 3577 cc3e fae5 ab3e
000000b0: a5c1 abbe 766e b33e 81cf 0d3e 0860 13be
000000c0: e823 023f 5c2d 1b3f d33f 3fbe f126 173f
000000d0: 791b 01be c77b 683e 36fc c43e 0063 df3d
000000e0: ca7d 183d 2917 32bf 4e04 c33e 5e8c 67be
000000f0: 63e7 c53e 3925 ca3e 528d 95be ac04 8d3e
0.42103028 -0.42354953 0.09835688 0.09206778 0.45807195 -0.012461681 -0.13414046 0.26471746
-0.12958847 0.26195487 0.0053302404 -0.14904097 0.5259379 0.32495743 0.24660465 0.42086503
0.3806532 -0.34079182 0.30015528 0.24721834 0.24180424 0.14669245 0.4301112 0.18472305
0.305526 0.5644085 -0.036759872 0.36984783 -0.2683498 0.096824095 0.2594716 0.1320542
-0.2296091 0.40976375 0.19318636 0.4006565 0.04472615 -0.5392415 0.5262786 -0.48566413
0.07680916 0.33594188 0.39934698 0.33573896 -0.33546177 0.35045213 0.13848688 -0.14392102
0.5083604 0.6061609 -0.18676691 0.59043795 -0.12608136 0.22703467 0.38473672 0.109075546
0.037229337 -0.6956659 0.38089222 -0.2261214 0.38653097 0.39481524 -0.2920938 0.27542627

fc.3.weight f4 [32, 64]
00000000: ebab 673d 38cd 38bf 31f3 103c a155 35be
00000010: aa39 7ebc df00 09be ea53 80bd 2820 293c
00000020: 7363 ce3d beb8 e03c ad15 02bd 213d 93be
00000030: 690b 963d 0810 b1bd 84b5 b5bd f984 ae3d
00000040: 078c 42bc 1e8a 603d 6923 b63d 8ce2 66be
00000050: 5a73 6ebe 98e2 483d c193 2e3d d9fb b9be
00000060: 2fe4 3bbe d938 8d3c d165 57bd 2c01 ac3d
00000070: c3f5 193e aef2 8bbe ca86 8d3d 322a 57be
00000080: 60ef 87bc 7bfa 2abd 16f3 ebbe 830b 923d
00000090: 3a16 2abe 4d84 be3d c424 9a3d 833b a73c
000000a0: 6c15 a63c 64f5 cf3d e181 653d 8522 103c
000000b0: aa0e 3e3e 120d 9bbd 3394 8e3d 8265 20be
000000c0: 7dea 123d 9968 6cbc 9414 763d 9598 1f3d
000000d0: 2df2 b13e c4ae b3bd b534 8cbc 16e0 8dbd
000000e0: 7d1b 733c d6d6 89be 4817 a9bd 4a20 08be
000000f0: d1e9 1e3e 90f0 eabc f644 f13a 6496 cabd
00000100: 8f57 bb3d 9e8b b5bd cf21 a13d c2fe 423c
00000110: f878 0b3e 3ba8 273d 8096 063c f891 42bd
00000120: 096b 4c3c 1a9b ca3d 2f8d 243d beda 593d
00000130: c00d ab3d 90ff 0c3e 6be4 c93d 4afd 313e
00000140: 088e 8a3d b4f5 f23d 1bf1 54bb 4a47 1fbd
00000150: d3f9 af3d fbd1 d13c fcc1 99bd 646f 003e
00000160: 91dc 673d c0a2 f53c 3623 d1bd 9aed 0c3c
00000170: df60 cf3d 04ac 083e 33c3 8e3d ff4c 093e
00000180: 1526 3c3c 16ed 163e ae11 763c 90c3 163e
00000190: 9810 913d ea76 e63c c58b 33bd cf08 d03d
000001a0: 8224 e73c a53d c73d a585 3a3b fb6e 9c3d
000001b0: d643 08be d41c ef3d 5b75 f6bc 8054 2fbc
000001c0: b6ed d53d 10f6 743d 6f87 263e 5fd7 27bd
000001d0: 9b63 d83a b158 993d d291 e6bc 9d2a 2d3e
000001e0: d409 cf3d 0720 abbb 3308 8a3d 7648 c1bd
000001f0: a546 353e 3695 663d c938 b43c 7bb9 2cbd
00000200: 6abc 6b3e a39b 25bd de12 5d3e cdf9 613e
00000210: 994c 94bc 0067 203e 4e61 063e e538 d1ba
00000220: 113f 33be 4b7f 5a3d 8665 0abf 29a4 22bc
00000230: 2a01 ba3e 3d85 d83d de6f 1bbe 3614 00be
00000240: a64f 993d 32f6 713e abdc 7c3d a585 233d
00000250: 86ec 6e3c a9cf 483e 46c2 7fbe 243f 66be
00000260: 8cf0 20bb 60ff ab3c 3652 ec3d 7cde 69be
00000270: 0125 453d 2e5d 583d 748c a6bd ea52 e3bc
00000280: 1412 8e3e 89a5 49be 48f7 013e 017c b93d
00000290: 66ff c2be 80ee 3abd 4dc6 03be 90cb eb3d
000002a0: 3f38 173c b0f9 093e 1052 df3c 1918 84be
000002b0: 8578 ab3e e140 7f3c db5a f33d 0edd 5b3e
000002c0: 8412 8e3e ff1c 2c3d a445 a63e fbf9 b13e
000002d0: b6dc 9c3d 0c69 88bd 4c83 0a3e 8eb7 003e
000002e0: 9496 7b3e bbc6 053e 3a9b b8bc c2d5 503e
000002f0: 547d 523d 80a3 de3d 50d1 2f3e 9704 8ebc
00000300: 53f3 1a3b 653f 653d 3eaa 873d 59fc d23d
00000310: 42a3 2cbd 9cfd 06bd 2310 bd3d 0213 eb3d
00000320: e59a 263d 7686 e2bb b8db 083d cdde 3b3c
00000330: 7b13 813c 7a0a 963c 7129 253e c616 323d
00000340: 8379 9a3c 7e5b aa3d 8206 a03d d94d 9b3d
00000350: 01b9 3abd 15a3 b9bc fef1 883c 63c9 0d3e
00000360: 11db da3d 963e fe3b ac35 713c 266b 42bd
00000370: 28e5 373e ee16 e13d 7eee 273e 7abd 1e3e
00000380: 63c6 b73d d02e 1e3e 65cb f73d 251a 0d3e
00000390: 5541 0d3e 769b 183d 15bf bd3d 602e 8dbb
000003a0: e92e c73d 7ddb 033d e91c 8dbd 2837 023d
000003b0: a67f a2bd 9e6b d73d 8ada ca3d bc29 ba3d
000003c0: adad 0d3e d1a8 00bc dbff 1b3d 836f 4b3d
000003d0: ab98 1fbd 8724 4b3d 1f10 bbbd f666 973d
000003e0: d0ce 0d3e 56d5 85bd ab56 a2bd db95 453d
000003f0: 048a 293e 7014 043e 3dea 50bd dff9 443d
0.056560438 -0.7218814 0.008847044 -0.17708446 -0.015516678 -0.13379239 -0.06266005 0.010322608
0.10077562 0.027431842 -0.031758953 -0.28757575 0.07326395 -0.08645636 -0.08872512 0.08521456
-0.011874205 0.05481922 0.08893473 -0.22547358 -0.2328619 0.04904422 0.042621378 -0.36324957
-0.18348764 0.017239021 -0.052587334 0.08398661 0.15035157 -0.27333587 0.069104746 -0.2101219
-0.016593635 -0.041742783 -0.46083897 0.07131102 -0.16610041 0.09302578 0.07526544 0.02041412
0.020273887 0.101542264 0.056032065 0.008797293 0.18560281 -0.07570852 0.069618605 -0.15663722
0.035868157 -0.014429235 0.06007822 0.038963873 0.34755078 -0.08773568 -0.017114976 -0.069275066
0.014838097 -0.2692172 -0.08256394 -0.13293567 0.15518881 -0.028679162 0.0018407393 -0.09891966
0.0914756 -0.088645205 0.078677766 0.011901559 0.13620365 0.04093192 0.008214593 -0.047502488
0.012476691 0.098928645 0.040173706 0.053187124 0.08352232 0.13769364 0.098580204 0.17381778
0.067653716 0.118632704 -0.0032492343 -0.038886346 0.08592572 0.025612822 -0.07507703 0.12542492
0.056606833 0.029984832 -0.10211794 0.0086015705 0.101258986 0.13346869 0.06970825 0.13408278
0.011483689 0.14738879 0.015018864 0.14723039 0.07083243 0.028132875 -0.043834466 0.1015793
0.02821565 0.09728555 0.0028461006 0.07638355 -0.13307127 0.116754204 -0.030085256 -0.010701299
0.104457304 0.059804976 0.16262601 -0.04097688 0.0016509177 0.0748762 -0.028145704 0.16910787
0.101092964 -0.005222324 0.06739845 -0.09437649 0.1770273 0.056294642 0.021999734 -0.042169075
0.23021093 -0.04043163 0.21589229 0.22067948 -0.01810293 0.15664291 0.13123056 -0.001596239
-0.17504527 0.053344052 -0.5406116 -0.009926834 0.36329013 0.10572288 -0.15179393 -0.1250771
0.07485895 0.23629072 0.061733883 0.039922375 0.014582759 0.19610466 -0.24976453 -0.22485024
-0.002455744 0.020995796 0.11539118 -0.22838777 0.048130993 0.052823238 -0.08132258 -0.027749497
0.27748168 -0.19692053 0.12691987 0.09056855 -0.3808548 -0.045637608 -0.12868614 0.11513436
0.009229719 0.13474154 0.02726081 -0.25799635 0.33490387 0.015579433 0.11882564 0.21471044
0.277485 0.04201984 0.32475007 0.34761032 0.07659285 -0.06660661 0.13526648 0.1257002
0.2456916 0.13064091 -0.022534955 0.20394042 0.051389053 0.10871029 0.1716969 -0.017336173
0.0023643568 0.05596866 0.06624268 0.10302038 -0.042147882 -0.032956704 0.092315935 0.11478235
0.040675063 -0.0069130016 0.033412665 0.011466694 0.01575636 0.018315542 0.1612909 0.04347875
0.01885677 0.08318232 0.07813741 0.07583208 -0.04558659 -0.022660771 0.016716953 0.13846354
0.10686315 0.0077589257 0.014722269 -0.047465466 0.1795851 0.109907016 0.16399571 0.15501967
0.08973386 0.15447545 0.12099341 0.13779505 0.13794453 0.037257634 0.09264962 -0.004308507
0.09725744 0.032191742 -0.0689028 0.031790882 -0.07934503 0.10518573 0.09904964 0.090899915
0.13835783 -0.007852749 0.0380858 0.049666893 -0.038963955 0.049595382 -0.09133934 0.07392685
0.13848424 -0.06534831 -0.07926687 0.048238616 0.16556555 0.12898421 -0.051004637 0.04808986

fc.3.bias f4 [32]
00000000: 9882 463e 2195 083f 8f36 b9be 5e67 f03e
00000010: e715 223f b409 433f 0c69 1a3f 457d 1d3e
00000020: 1a76 213f 8392 4bbf daa7 163f 91c4 4d3f
00000030: ef2c 543f 71f4 1b3e f8d3 093f 84d9 bd3d
00000040: 1d6e e43e 1d8b 5f3f 4a78 183f dc09 323f
00000050: 09ec 3d3e 7f36 083f 8280 70bf 5812 10bd
00000060: 6618 3c3f 9756 ec3e 6079 ba3d 5575 90bd
00000070: 8bc1 473f 1b19 273f 4d8b 193f a46b 183f
0.19385755 0.5335255 -0.36174437 0.46953863 0.6331467 0.7618668 0.6031654 0.15379818
0.63070834 -0.79520434 0.5884987 0.8037806 0.82881063 0.15229966 0.53839064 0.092700034
0.4461526 0.87321645 0.59558547 0.69546294 0.18547072 0.53208154 -0.9394609 -0.035173744
0.7347473 0.46159813 0.09105182 -0.07053629 0.780297 0.6527268 0.5997818 0.59539247

fc.5.weight f4 [1, 32]
00000000: a91b f6be a30e 8d3e f06a cebe f894 473e
00000010: 587f 3d3e 5f4e 713e 6d34 0b3e 85b3 0dbf
00000020: b9ba 3f3e 293a eabe 3341 903e e1d1 193e
00000030: 6d0f 473e d82c c9be 313d 6c3e d09a 31bf
00000040: 6c37 873e 8459 4d3e 0800 713e 60a7 173f
00000050: a2fa 0bbf 692f 403f 3b53 27bf 1e98 90be
00000060: 8eb0 273e c2ae 6c3e fe20 a3be b968 f4be
00000070: a3fa 733e 5ec1 a83e b3d7 713e d720 103e
-0.48067978 0.2755023 -0.40315962 0.19490421 0.18505609 0.23565052 0.13594218 -0.5535205
0.18723573 -0.45747498 0.28174743 0.15021469 0.19439478 -0.39292026 0.23070218 -0.6937685
0.2640947 0.20053679 0.23535168 0.5923977 -0.5467931 0.7507234 -0.65361375 -0.28241056
0.16375944 0.2311354 -0.3186111 -0.47736147 0.23826079 0.32960027 0.23617439 0.14075027
