codes/10m/model/wind_speed_predictor.pth (torch, 13834 bytes, 5 tensors)

fc.0.weight f4 [64, 9]
-0.1509029 0.10585514 -0.0925977 -0.18885797 -0.17999426 -0.24548855 -0.045887895 0.0066313157
-0.046240054 0.38824114 0.013106861 -0.08262645 -0.046883922 -0.25118378 0.19690184 -0.24327686
0.21811189 -0.24178343 -0.054155204 0.17736258 -0.03130733 -0.13201357 -0.28809032 -0.27806374
-0.15002578 -0.32590547 -0.021968883 0.32792202 0.06849015 0.14654207 -0.25921342 0.13192874
-0.18834522 -0.09163998 0.113823466 0.20326488 0.51804274 0.04514841 0.0005530882 -0.120887786
0.2563253 -0.28565753 -0.001804069 0.0044505005 -0.14436364 -0.6677872 -0.03416629 -0.0926463
-0.08483355 -0.032281656 0.011337483 -0.0861465 0.1609193 0.14514303 0.31806004 0.010404872
0.07488696 -0.24538644 -0.19840561 0.17335519 -0.039122954 0.06479539 0.17100637 0.32212114
0.08430539 -0.12850766 0.03276369 -0.19434913 0.17948675 0.21065472 -0.20129144 -0.043025695
-0.13914724 0.015929414 0.39931685 0.33679083 0.2135917 -0.22395076 0.03596881 -0.051808167
0.25221133 0.44076413 -0.053413242 0.21990845 -0.29961926 0.018360963 -0.037643895 -0.01660515
-0.10334699 0.30380684 0.45844164 0.052414253 -0.024353363 0.086862795 -0.19098939 0.15770921
-0.08578276 -0.028458584 0.007040262 0.29067376 0.018505393 0.069972806 -0.1772738 -0.09226612
0.09078793 0.069089465 -0.068253875 0.0076420708 -0.3987122 0.06533849 0.23417251 -0.013764834
0.040991053 -0.18102492 0.118536115 0.07854152 -0.13960719 0.5165503 0.1562269 -0.004828842
-0.16188516 -0.16181678 0.13572575 0.100626126 0.19012079 0.03271588 0.20722993 0.2759737
-0.2867421 -0.008253628 -0.030943524 -0.17507765 -0.09476887 0.20195849 0.29328686 0.28825405
0.03145968 0.05536768 -0.20444316 0.036799464 -0.044891447 -0.07859737 0.08263842 -0.32919323
0.43688098 0.09824412 0.20154566 -0.2736998 0.040958665 -0.042613477 0.1555777 -0.14902769
0.32011372 -0.2700395 0.14553228 -0.32323492 -0.27799124 -0.1833143 0.3158897 -0.100332044
-0.14361292 0.070442006 0.49851194 0.18653326 0.0004257893 -0.10443787 0.15337452 -0.0018767731
0.107827194 0.24875422 -0.11783104 0.5337759 -0.09399817 0.2301951 -0.4323385 -0.09763358
0.08110342 0.031390883 -0.016481444 -0.2059964 0.52344817 -0.07733755 -0.026468223 -0.060971197
0.17156981 -0.13620307 -0.18356411 0.11691152 0.16984177 0.42380583 -0.027339993 0.29741913
-0.2759192 0.0643745 -0.036116924 0.050164513 -0.12732302 0.20262718 0.32444248 0.14828871
0.027779004 -0.23566568 -0.17384763 0.06690727 0.024720343 0.049541578 0.14331362 0.3936209
0.014751725 0.07743177 -0.16573347 0.04763186 -0.055501845 0.17756747 -0.10672296 0.17531657
0.33318105 0.0065375194 -0.09785727 -0.010184788 0.09771887 -0.09963359 0.07368435 -0.13440101
-0.0015184482 0.44199908 0.045707952 -0.14025721 -0.053405333 0.058214027 -0.08994956 0.065697856
0.07531572 -0.15793693 -0.46071726 0.0055049374 -0.03774412 0.09994471 0.09701397 -0.08024465
-0.19906384 0.19389321 -0.15064745 0.30045062 -0.0047559775 0.08377747 -0.16819745 0.083817825
-0.084252864 0.02820664 -0.024828196 -0.07919228 0.39471263 0.026868446 0.084281795 -0.19901441
00000000: 4a86 1abe 94ca d83d dda3 bdbd fc63 41be
00000010: 6a50 38be 5a61 7bbe f2f4 3bbd 824b d93b
00000020: 3666 3dbd 8bc7 c63e 29be 563c 0e38 a9bd
00000030: 5b09 40bd 299b 80be a3a0 493e 921d 79be
00000040: b958 5f3e 1396 77be d9d1 5dbd 899e 353e
00000050: 1d3c 00bd 912e 07be 9380 93be 5f5e 8ebe
00000060: 5ca0 19be 15dd a6be 16f8 b3bc 65e5 a73e
00000070: 9044 8c3d 200f 163e 9fb7 84be 5418 073e
00000080: 92dd 40be bead bbbd 471c e93d ab24 503e
00000090: 739e 043f 8aed 383d 1ffd 103a 0494 f7bd
000000a0: 123d 833e b441 92be 8376 ecba 81d5 913b
000000b0: 10d4 13be 1af4 2abf f4f1 0bbd 58bd bdbd
000000c0: 36bd adbd c539 04bd dac0 393c 946d b0bd
000000d0: 07c8 243e 60a0 143e c4d8 a23e 3279 2a3c
000000e0: 565e 993d 9546 7bbe d72a 4bbe 0684 313e
000000f0: 643f 20bd 72b3 843d 4b1c 2f3e 10ed a43e
00000100: 4ea8 ac3d 8397 03be 3833 063d 7503 47be
00000110: 60cb 373e dfb5 573e 581f 4ebe b63b 30bd
00000120: 9d7c 0ebe 677e 823c 4273 cc3e d96f ac3e
00000130: c8b7 5a3e 5953 65be 0854 133d cd34 54bd
00000140: d821 813e d6ab e13e d8c7 5abd ae2f 613e
00000150: b267 99be bb69 963c 7c30 1abd 8607 88bc
00000160: 96a7 d3bd 928c 9b3e ddb8 ea3e 54b0 563d
00000170: b480 c7bc 1fe5 b13d b992 43be 867e 213e
00000180: dfae afbd fa21 e9bc 00b2 e63b 31d3 943e
00000190: 9f98 973c e74d 8f3d 4387 35be 05f6 bcbd
000001a0: 06ef b93d c77e 8d3d b0c8 8bbd 566a fa3b
000001b0: 0124 ccbe 30d0 853d ebca 6f3e e685 61bc
000001c0: 3ce6 273d 995e 39be 10c3 f23d 60da a03d
000001d0: 30f5 0ebe a43c 043f f2f9 1f3e 433b 9ebb
000001e0: 39c5 25be 4cb3 25be b1fb 0a3e 1215 ce3d
000001f0: 06af 423e 1601 063d 1534 543e 6d4c 8d3e
00000200: dccf 92be 3a3a 07bc 467d fdbc 8e47 33be
00000210: 2e16 c2bd 35ce 4e3e b229 963e 0996 933e
00000220: dedb 003d 38c9 623d 8c59 51be 09bb 163d
00000230: 18e0 37bd a8f7 a0bd 553e a93d 048c a8be
00000240: ddae df3e 3734 c93d fc61 4e3e 6122 8cbe
00000250: 46c4 273d 788b 2ebd c34f 1f3e b79a 18be
00000260: f2e5 a33e 9e42 8abe 6a06 153e 0c7f a5be
00000270: de54 8ebe beb6 3bbe 4bbc a13e e37a cdbd
00000280: 440f 13be e643 903d f53c ff3e 9302 3f3e
00000290: 793c df39 86e3 d5bd 360e 1d3e 0efe f5ba
000002a0: 81d4 dc3d 6db9 7e3e 6651 f1bd 8aa5 083f
000002b0: 1d82 c0bd 44b8 6b3e 795b ddbe 1df4 c7bd
000002c0: 8d19 a63d ba93 003d 1804 87bc b8f0 52be
000002d0: b300 063f 2663 9ebd e3d3 d8bc efbc 79bd
000002e0: ffaf 2f3e d178 0bbe 3bf8 3bbe 4f6f ef3d
000002f0: 00eb 2d3e 14fd d83e 1ff8 dfbc 5247 983e
00000300: 4845 8dbe c7d6 833d 57ef 13bd 4e79 4d3d
00000310: f760 02be 807d 4f3e 531d a63e ffd8 173e
00000320: cb90 e33c 5852 71be 1d05 32be ae06 893d
00000330: 5182 ca3c 1cec 4a3d cec0 123e ae88 c93e
00000340: 38b1 713c 8c94 9e3d 09b6 29be a019 433d
00000350: e755 63bd 3fd4 353e 9191 dabd 3086 333e
00000360: b596 aa3e b038 d63b 6469 c8bd 19de 26bc
00000370: d520 c83d b20c ccbd d2e7 963d 6ba0 09be
00000380: ab06 c7ba b44d e23e 4338 3b3d 969f 0fbe
00000390: 8dbf 5abd d571 6e3d 7a37 b8bd 998c 863d
000003a0: 213f 9a3d 38ba 21be 22e3 ebbe c362 b43b
000003b0: 9499 1abd d0af cc3d 43af c63d 4f57 a4bd
000003c0: 64d7 4bbe f18b 463e 5343 1abe aad4 993e
000003d0: 08d8 9bbb 8693 ab3d f43b 2cbe aea8 ab3d
000003e0: c48c acbd 9d11 e73c 8064 cbbc 902f a2bd
000003f0: c617 ca3e 371b dc3c ef9b ac3d 6fca 4bbe

fc.0.bias f4 [64]
0.39023867 0.083650045 -0.15427417 0.171724 0.16085601 -0.27864277 0.28270915 0.27197197
-0.016805936 0.4700796 -0.10054335 0.190039 -0.3801137 0.03323013 0.37549976 0.37857747
0.26347366 -0.24986549 -0.02369018 -0.03389486 0.17125142 0.33049914 0.28980142 0.15235004
0.44967413 0.13308908 -0.59701586 0.2759866 0.38074598 0.22586487 -0.04768869 0.15055981
0.13395265 0.06570864 0.40324977 -0.16540809 0.13540414 0.15276341 0.1650223 -0.35403845
-0.30876213 0.19938302 -0.20790297 0.19661532 0.38070658 -0.031737432 -0.08115156 0.33159167
0.12021849 0.030158183 -0.3732122 0.28780195 -0.061399743 0.26550707 0.14937656 0.010169913
0.33289152 0.49028757 0.36148524 0.36695457 -0.17711721 0.12110566 -0.48635653 0.111106716
00000000: 5dcd c73e b750 ab3d 0cfa 1dbe 6bd8 2f3e
00000010: 70b7 243e 44aa 8ebe 41bf 903e e93f 8b3e
00000020: 9aac 89bc 46ae f03e ace9 cdbd 9599 423e
00000030: 439e c2be 511c 083d 8141 c03e e8d4 c13e
00000040: 05e6 863e bddc 7fbe e911 c2bc 56d5 0abd
00000050: 885c 2f3e 2f37 a93e da60 943e a601 1c3e
00000060: b03b e63e 8148 083e 08d6 18bf 1e4e 8d3e
00000070: 23f1 c23e 1f49 673e 3755 43bd 5a2c 1a3e
00000080: e22a 093e 4092 863d c176 ce3e bd60 29be
00000090: 62a7 0a3e 036e 1c3e 9bfb 283e 8744 b5be
000000a0: 1216 9ebe 102b 4c3e 84e4 54be 8755 493e
000000b0: f9eb c23e 1cff 01bd ca32 a6bd 62c6 a93e
000000c0: 1d35 f63d 4b0e f73c ab15 bfbe c75a 933e
000000d0: 4c7e 7bbd 8bf0 873e 2bf6 183e b59f 263c
000000e0: c270 aa3e f906 fb3e 9814 b93e 78e1 bb3e
000000f0: 375e 35be 3f06 f83d b903 f9be eb8b e33d

fc.3.weight f4 [32, 64]
0.17429838 0.015319338 -0.024314446 0.110928014 -0.018371573 0.19980513 0.054983642 0.018402273
-0.17951512 -0.04095582 -0.18358405 0.06746072 0.15609089 0.22022943 0.21578425 0.0637174
0.017157877 0.06997295 0.15856624 0.13880907 -0.051635586 -0.10416205 0.1284366 0.05278747
-0.031422615 0.17222466 0.17641436 -0.0037675223 -0.025945494 -0.15753742 -0.004473893 0.118860684
0.13683857 0.09151229 -0.0698831 0.17015524 -0.04341024 0.22047421 0.064135216 0.07736101
0.07681371 -0.03813034 -0.3278141 -0.15269233 0.2838563 0.04462503 -0.15882303 0.026174225
-0.05489333 0.019161228 -0.24657246 0.18105642 0.16622093 0.13428262 -0.09523173 0.10347063
0.025967417 -0.011618631 -0.09120857 -0.013191507 0.15075423 -0.08071161 0.13735643 -0.19856705
0.33452696 -0.012084689 0.22333442 0.1010877 -0.120435975 0.009574075 0.07323815 0.029498123
-0.11618793 -0.066844344 -0.37506574 -0.022891844 -0.022066545 0.13772704 0.20605859 0.02722673
-0.013397074 -0.027083116 0.14910759 -0.19783854 -0.23846179 -0.23727226 0.16264203 -0.04496444
-0.05293867 0.08432019 0.25836733 -0.015368604 -0.07469077 -0.4018657 -0.11595169 0.15864465
0.020970766 0.068982825 -0.067229025 0.038162425 0.13471287 0.15625206 0.01796507 0.22557388
0.047866013 -0.0006014522 -0.13338241 -0.31133538 0.28397724 0.11154543 -0.3871496 0.024062647
-0.4295611 0.02906997 0.10581759 0.110055864 0.14686058 0.28376946 -0.33327413 -0.15938042
0.019891884 -0.062452596 -0.11716636 -0.056448083 0.19027792 -0.2344488 -0.25832763 -0.5148587
0.04147606 -0.012871966 0.07712146 0.10935191 0.024792051 -0.08618427 -0.047606472 0.07428274
0.04746312 0.13405836 -0.06589185 0.060835112 -0.17524888 0.11913266 -0.05032791 0.12010363
-0.00731471 -0.22231767 -0.07316069 -0.03240417 0.02074692 0.15103611 -0.11027109 0.025188478
-0.029984785 0.034876358 -0.7800244 0.013745047 0.016258199 -0.06191167 -0.01798615 0.12704553
0.14261907 0.09648388 0.08248725 -0.24019477 -0.018487435 -0.09591136 -0.029701969 -0.09740798
-0.34082478 0.012271248 0.06158357 0.06519613 -0.046242505 0.11571524 -0.017373336 0.12664446
0.09082944 -0.001442018 -0.25584337 -0.068788774 -0.08584703 -0.021209333 0.13560052 0.027626349
-0.07639973 -0.032873284 -0.011603119 0.10991266 -0.1676626 0.015058185 -0.11228359 0.025142334
0.17017734 0.1079066 0.024585167 0.06665838 -0.06395208 -0.14393565 0.06592098 0.13974148
0.10977098 0.07397833 -0.088167585 0.028970284 0.015184744 0.06606109 0.029166592 -0.049088266
-0.05757286 -0.09947449 0.018612834 0.14712541 0.00088861334 0.060185447 0.04132963 0.077463076
0.051879704 0.1027715 -0.36190292 0.095121786 -0.016552914 0.06982619 -0.066409364 0.09254396
-0.07074605 -0.070862666 -0.0763046 0.006990964 -0.015757894 0.060816072 0.0032724747 -0.027760727
0.132415 0.08983915 0.08148754 -0.026849829 -0.032537326 0.09963999 0.013000559 0.00090539304
-0.052140053 0.13015574 -0.12787883 0.12593457 0.130377 -0.032269444 -0.06288344 0.15660378
0.011005966 0.0017215844 0.12265738 0.04804116 0.123809546 -0.024846088 0.018321577 0.019865612
00000000: 467b 323e f6fd 7a3c 172f c7bc 3a2e e33d
00000010: fb7f 96bc b799 4c3e 8736 613d 5dc0 963c
00000020: d0d2 37be 4ac1 27bd 75fd 3bbe d928 8a3d
00000030: 4ad6 1f3e d383 613e 8cf6 5c3e 457e 823d
00000040: ad8e 8c3c fa4d 8f3d 305f 223e f723 0e3e
00000050: d67f 53bd ea52 d5bd e284 033e ad37 583d
00000060: 00b5 00bd a95b 303e f7a5 343e 89e8 76bb
00000070: a58b d4bc 7d51 21be bc99 92bb 3b6d f33d
00000080: 691f 0c3e cc6a bb3d df1e 8fbd 2d3d 2e3e
00000090: f0ce 31bd fec3 613e 5359 833d 736f 9e3d
000000a0: 8250 9d3d 8f2e 1cbd 40d7 a7be 615b 1cbe
000000b0: 9d55 913e bcc8 363d 81a2 22be 546b d63c
000000c0: d4d7 60bd 02f8 9c3c 7e7d 7cbe db66 393e
000000d0: d235 2a3e 6281 093e da08 c3bd 69e8 d33d
000000e0: 9fb9 d43c 125c 3ebc 8fcb babd 3121 58bc
000000f0: 515f 1a3e 214c a5bd 2aa7 0c3e 2955 4bbe
00000100: 1e47 ab3e dcfe 45bc c7b1 643e 1107 cf3d
00000110: 23a7 f6bd 95dc 1c3c e2fd 953d 0ca6 f13c
00000120: f0f3 edbd b0e5 88bd 9e08 c0be ad87 bbbc
00000130: e6c4 b4bc 5108 0d3e 0601 533e 970a df3c
00000140: 677f 5bbc 69dd ddbc a9af 183e 3096 4abe
00000150: 542f 74be 80f7 72be a28b 263e a22c 38bd
00000160: 38d6 58bd 10b0 ac3d b948 843e 99cc 7bbc
00000170: 79f7 98bd 57c1 cdbe 1478 edbd be73 223e
00000180: e2ca ab3c de46 8d3d 5faf 89bd 3450 1c3d
00000190: 2cf2 093e 8a00 203e 7c2b 933c d7fc 663e
000001a0: 270f 443d c6aa 1dba 6695 08be 5a67 9fbe
000001b0: 7765 913e ee71 e43d 7938 c6be 071f c53c
000001c0: 6fef dbbe 2524 ee3c e5b6 d83d f864 e13d
000001d0: 9f62 163e 3b4a 913e e8a2 aabe 9f34 23be
000001e0: 4ef4 a23c 4bce 7fbd ebf4 efbd 1b36 67bd
000001f0: 37d8 423e 5913 70be 8543 84be c8cd 03bf
00000200: cde2 293d f0e4 52bc dbf1 9d3d e5f3 df3d
00000210: b318 cb3c 6181 b0bd 01ff 42bd 8d21 983d
00000220: b068 423d 9846 093e 4ef2 86bd 3d2e 793d
00000230: 7174 33be d3fb f33d a324 4ebd e4f8 f53d
00000240: 3cb0 efbb 3ea7 63be 46d5 95bd 3cba 04bd
00000250: 72f5 a93c 36a9 1a3e cfd5 e1bd 1158 ce3c
00000260: a7a2 f5bc 83da 0e3d aeaf 47bf e832 613c
00000270: ea2f 853c 1797 7dbd b157 93bc 3918 023e
00000280: bc0a 123e 5799 c53d 13ef a83d 9ef5 75be
00000290: f672 97bc 2d6d c4bd 8b51 f3bc d67d c7bd
000002a0: 9680 aebe 580d 493c 0e3f 7c3d 8c85 853d
000002b0: c868 3dbd 1dfc ec3d 8752 8ebc 16af 013e
000002c0: c904 ba3d 1802 bdba e7fd 82be 21e1 8cbd
000002d0: 91d0 afbd 32bf adbc ddda 0a3e a750 e23c
000002e0: 7677 9cbd 23a6 06bd 021b 3ebc e419 e13d
000002f0: bfaf 2bbe 9bb6 763c f0f4 e5bd 4cf7 cd3c
00000300: f842 2e3e 23fe dc3d d566 c93c 3084 883d
00000310: 4ff9 82bd de63 13be 9401 873d 6418 0f3e
00000320: 9ccf e03d f381 973d 3591 b4bd 1753 ed3c
00000330: 6fc9 783c 094b 873d c7ee ee3c c710 49bd
00000340: 85d1 6bbd 48b9 cbbd f179 983c 0ba8 163e
00000350: d5f1 683a 0485 763d 4249 293d f6a4 9e3d
00000360: d07f 543d dd79 d23d 574b b9be 36cf c23d
00000370: fa99 87bc 0901 8f3d a201 88bd b087 bd3d
00000380: 4ee3 90bd 7220 91bd 9645 9cbd 7514 e53b
00000390: b316 81bc 461a 793d 0477 563b 776a e3bc
000003a0: cc97 073e 97fd b73d f0e2 a63d 2cf4 dbbc
000003b0: dc45 05bd 0d10 cc3d 4c00 553c e657 6d3a
000003c0: cf90 55bd 8c47 053e abf2 02be fef4 003e
000003d0: 8c81 053e f72c 04bd 08c9 80bd be5c 203e
000003e0: 5e52 343c c9a6 e13a cb33 fb3d cfc6 443d
000003f0: dc8f fd3d 068a cbbc 2217 963c 35bd a23c

fc.3.bias f4 [32]
-0.21716473 0.21730354 0.76688504 0.7620815 0.23129179 0.880172 0.69251364 -1.0254709
-0.105697095 0.7404353 0.5535403 0.72763896 0.5605829 0.69475234 0.35096395 0.27600825
0.7784787 0.949327 1.0776006 0.20615007 0.7407603 0.09161761 0.69736624 0.6926654
0.4220197 0.7555026 0.82297593 0.7480014 0.49671897 0.6285383 0.7031165 0.22055604
00000000: 6e60 5ebe d284 5e3e 9452 443f c617 433f
00000010: c1d7 6c3e f452 613f 9348 313f a142 83bf
00000020: b877 d8bd 2b8d 3d3f d1b4 0d3f 8c46 3a3f
00000030: 5c82 0f3f 4adb 313f 8cb1 b33e f450 8d3e
00000040: 614a 473f 1807 733f d1ee 893f 0119 533e
00000050: 78a2 3d3f 03a2 bb3d 9886 323f 8552 313f
00000060: f712 d83e 9e68 413f 8dae 523f 057d 3f3f
00000070: f351 fe3e e3e7 203f 71ff 333f 71d9 613e

fc.5.weight f4 [1, 32]
-0.34467703 -0.51553065 0.2447869 0.35698134 -0.43578845 0.26203793 0.19286466 -0.53855157
-0.05358921 0.24655545 0.23757374 0.28128758 0.19771843 0.2630239 -0.45836544 -0.5668558
0.3767866 0.3792454 0.31741908 -0.56426483 0.32755646 -0.45940232 0.27194124 0.3117595
-0.8209043 0.3032218 0.25533766 0.3817657 -0.48400378 0.5279047 0.28348947 -0.4321029
00000000: 8279 b0be d1f9 03bf 6ba9 7a3e 42c6 b63e
00000010: aa1f dfbe d629 863e 507e 453e 84de 09bf
00000020: 5c80 5bbd 0879 7c3e 8846 733e ed04 903e
00000030: b376 4a3e 12ab 863e e0ae eabe 761d 11bf
00000040: 2cea c03e 742c c23e c184 a23e a973 10bf
00000050: 7bb5 a73e c836 ebbe e23b 8b3e f19e 9f3e
00000060: c926 52bf e33f 9b3e 9ebb 823e cb76 c33e
00000070: 58cf f7be c324 073f 8825 913e 973c ddbe
