codes/50m/model/wind_speed_predictor.pth (torch, 14090 bytes, 5 tensors)

fc.0.weight f4 [64, 10]
00000000: e460 d93e 9abf c93d 469a da3b 3398 5c3e
00000010: c990 84be 204d a33d 1fb7 b0bd 4793 243e
00000020: 8548 1abe cc6c 25be 90bf cf3e 654d 9d3d
00000030: c6c3 4aba 67d5 3d3e 6e2a 43be 655c 773d
00000040: de4f 81bd 08bf 0b3e 00bc 0bbe 66f3 063e
00000050: 6541 f83e b250 8abe ff6e 6d3c aa46 e63d
00000060: 8000 8cbd f0cc 0ebe 1299 163e 13c2 99bd
00000070: f9cb d33d 81f0 963a 2f09 f53e f3dd b73d
00000080: 6315 733b 302f bfbc dc90 773c 68b0 3c3d
00000090: e452 69bd d896 7abd 824a 613d 7973 2c3e
000000a0: cbe4 b63e 8127 c3bd ffec 203c 4bf3 283e
000000b0: 5948 16be aeef 1fbe 662d 1b3e 4966 c93d
000000c0: 2fde abbd afb6 aebd ac1f da3e 4584 0cbe
000000d0: b9b2 a139 a966 0ebc 2766 293d 1916 65bd
000000e0: 733c 783d a4e4 18bd eea5 0b3d f3ce 5ebd
000000f0: 9025 c93e 8942 39be 4eb0 013b cb11 a5bd
00000100: 4280 f03d c94f 33bd 19e3 903d 097b 57bd
00000110: b7c9 393d 7f38 e3bd 5432 ae3e 9f8c c73d
00000120: 04b5 0a3c 41f2 55be daab 603e ddc4 9f3d
00000130: 6a15 91bd 291d 893d 3169 33bd f732 b3bd
00000140: 5ccd ff3e 58ab 97bd 4d53 94bb 5b1a af3d
00000150: 4d39 92bd 6dca 163d 2227 19bd 3a28 d6bd
00000160: 3605 cd3d 5a39 8a3e 58b0 c83e 43a9 d43b
00000170: a6ba 913c 70d0 82be 55a5 693e 360e 173e
00000180: 619a 09be 7a82 05bd 8fa0 cd3c 231a 76be
00000190: 9586 df3e 1473 bdbc 5654 3fbc 57c3 4dbd
000001a0: e3d8 643d 71d8 f03d 90b3 e4bd 26cd f13d
000001b0: dd8d cbbd 17f1 80be 8e06 cf3e de2a 14bd
000001c0: 619e b03a f4e2 07be ca40 0c3e 30f9 60bd
000001d0: 87ff 1a3d 592a dabc 27f5 043d 7500 a03e
000001e0: 86bd 48bf 4f0a 24be 21fc 033b 5890 1c3e
000001f0: 02db 0abe edef f63d f764 e6bd 5863 c03d
00000200: b70f aebd 9883 2bb9 436c d73e 8c51 c8bb
00000210: ca7a 993b b07a 163e 3002 2ebe e6ea b7bc
00000220: c932 053d 1322 babd d019 c43d 4a46 9c3b
00000230: 46bf ba3e f897 1a3c 5582 52bc 013e 00be
00000240: f719 f23d 66fd 28bd 7a8a 163d f0d7 383e
00000250: 2719 3dbe 051a 983e 68b9 013f 02f5 e63d
00000260: ff2a 8fbb 458b 0dbc af4d eb3c 081a 85bd
00000270: d2c6 443d 8546 733d 9f67 b6bc 35ab 193e
00000280: b362 4e3e 5430 f73e dcd3 36bd 375d 33be
00000290: 2156 263e 481f 29be 4c0d 973d 5720 903d
000002a0: 0480 673d 0ec8 be3d a12e 063f 1494 37be
000002b0: d434 453b 44c8 eabc 079e 883d 905b 0d3e
000002c0: 32ff 0dbe 948f c9bd 6e54 023e 8290 88be
000002d0: ede2 853e 2c02 9b3d 5177 8c3b 5e44 46be
000002e0: 25eb 3c3e c323 c93d b9aa d0bd 123a 8f3d
000002f0: 8a4b cfbd ad5b 8d3e 0807 9f3e aec6 a53e
00000300: 27ea 2abc d970 c83d 9907 ecbd 48f2 653e
00000310: fbe3 83be 3449 b73d 5112 78bd 0b4d 95be
00000320: b99c 983e 571d ed3e 02d0 cc3d b777 79be
00000330: cad4 0f3e d562 3dbd 2f3e 4f3d a4c4 84be
00000340: bf77 553e e83a 83be 5bc3 35be 24f6 80be
00000350: 10f8 a23c 9065 1cbe a21d 1fbe ecd8 32be
00000360: 4a09 213e 8a97 64be af5b d53c 3b77 50be
00000370: 0fe9 2fbf 47d3 08bf b804 583c 86dd 9b3e
00000380: 4c91 74be 089c 2ebe 59de 453e b137 1e3d
00000390: ae40 223c 6e1d debd a4ef a33e 4fc2 d03d
000003a0: 62e9 e03c 9506 8bbd 7475 0a3d 7fca fdbd
000003b0: 1bf1 943d 1dda 343d 393a f4bd 0c70 50be
000003c0: d3bf a73e 6922 c4bc 78fd dd3b 28dc b03d
000003d0: a96f d0bd c8ba 64be 940f 4b3e 4f71 c63c
000003e0: be67 01bd bbed 023e 2218 f23e cccf 62bc
000003f0: 2e95 99b8 69ae 993e 8689 9dbe cfd9 093d
0.42456734 0.09850998 0.006671223 0.21542434 -0.25891712 0.07973695 -0.086286776 0.16071807
-0.15066727 -0.16154784 0.40575838 0.076807775 -0.0007734861 0.18538438 -0.19059154 0.06039085
-0.063140616 0.13647091 -0.13645935 0.13178787 0.48487392 -0.2701469 0.014491796 0.11243947
-0.06836033 -0.13945365 0.14706829 -0.0750772 0.10341639 0.0011515768 0.4785857 0.0897788
0.0037091605 -0.02333793 0.015110221 0.04606667 -0.056963816 -0.061179012 0.055002697 0.16840924
0.3572143 -0.09529019 0.009822129 0.16499059 -0.14676036 -0.15618774 0.15154037 0.098339625
-0.083919875 -0.08530938 0.4260229 -0.13722332 0.00030841472 -0.008691468 0.041357186 -0.055929277
0.060604524 -0.037327424 0.03409379 -0.05439658 0.3928647 -0.18091787 0.0019788924 -0.08060034
0.11743213 -0.04377726 0.070745654 -0.05260757 0.045358386 -0.1109476 0.34022772 0.09743618
0.008466009 -0.20893194 0.21940556 0.078012206 -0.070841625 0.06695015 -0.04380149 -0.08749955
0.49961364 -0.07405728 -0.004526532 0.08549949 -0.071398355 0.036814142 -0.037390836 -0.10456891
0.100107595 0.2699688 0.3919704 0.006489904 0.017789196 -0.2554965 0.22816975 0.14751515
-0.13437797 -0.032595135 0.025100974 -0.24033408 0.43657365 -0.023126163 -0.011677822 -0.05023512
0.0558709 0.11760033 -0.11167061 0.11806707 -0.09939168 -0.25183937 0.40434688 -0.036173694
0.0013474935 -0.1327017 0.1369659 -0.054925144 0.037841346 -0.026631521 0.032460358 0.3125035
-0.7841419 -0.16019557 0.0020139294 0.15289438 -0.13560107 0.12057481 -0.11249726 0.09393948
-0.08499091 -0.00016356853 0.42074785 -0.006113237 0.004683827 0.14695239 -0.16993022 -0.022450875
0.032519136 -0.090885304 0.09575236 0.0047691213 0.36474055 0.009435646 -0.012848456 -0.12523653
0.11821359 -0.041257285 0.036753155 0.18051124 -0.18466626 0.2970735 0.5067353 0.112772
-0.004369139 -0.0086391615 0.028723566 -0.06499106 0.048041172 0.059393425 -0.022266207 0.15006717
0.20154838 0.4827906 -0.04463564 -0.17516027 0.16243793 -0.16515839 0.07375583 0.07037418
0.05651857 0.09315501 0.524149 -0.17927581 0.0030091302 -0.028659947 0.06670766 0.1380446
-0.1386688 -0.098418385 0.1272752 -0.2667275 0.26149693 0.075687736 0.0042866846 -0.19362018
0.18449076 0.09821274 -0.10188813 0.06993498 -0.1012183 0.27609006 0.31060052 0.32378143
-0.010431803 0.09787149 -0.11524887 0.22455704 -0.25759873 0.08949509 -0.060564343 -0.29160342
0.2980707 0.46311447 0.10000612 -0.24362074 0.14046016 -0.04623683 0.050596412 -0.25931275
0.20846461 -0.2563088 -0.17750303 -0.2518779 0.019893676 -0.15273118 -0.15538648 -0.17465562
0.157262 -0.22323433 0.026044695 -0.20357983 -0.68714994 -0.53447384 0.013184719 0.30442446
-0.23883551 -0.17051709 0.193231 0.03862733 0.009903116 -0.10845457 0.3201877 0.101933114
0.027455036 -0.06788365 0.03380342 -0.12392139 0.0727255 0.04415332 -0.119251676 -0.20355242
0.32763538 -0.02394219 0.0067746006 0.086357415 -0.101775475 -0.22336876 0.19830161 0.024223952
-0.031593077 0.12786 0.47284037 -0.013843488 -7.3233954e-05 0.30015877 -0.30768985 0.033654984

fc.0.bias f4 [64]
00000000: b136 843e cb41 103e 5cfa 8f3e 3fb4 1f3e
00000010: 3ba9 793e e670 453d 85a3 1ebe 8d0b 7dbe
00000020: d722 273e b9e9 303e 4609 b43c 187f d83e
00000030: 6f71 d6be dacf 1f3d e91b 1a3c 60de 0fbe
00000040: d737 44be feb2 cabd b1ed e83e e407 c9bd
00000050: c979 54be d7be c93d 5cd8 663d 8c74 57bd
00000060: 9369 f13e cef3 b2bd 016c d6bd 68e1 ca3d
00000070: 4029 0abf 439d 913e 3cbf 243e 431f a8bd
00000080: 5dc0 953e 295d 5c3c 3d77 c73e b2c9 6c3e
00000090: a078 ba3e 2e99 e63e 117f a53e 5a4a 6c3e
000000a0: 0e55 133e 1c8c ffbe 3a04 f83d 1847 7ebd
000000b0: 5765 523c 63ad 883e c01c 3bbd ee87 ef3e
000000c0: 62a4 13be 55f2 ba3e b3a8 833d 4628 403e
000000d0: 1071 d03e f631 91be c755 89bd b367 1cbd
000000e0: 79cf 213e a9f1 01bd 154b b93e 61dd f33e
000000f0: 5357 183e d632 803e 716d eb3e fd57 eabc
0.25822976 0.14087598 0.28120697 0.15596102 0.24380963 0.04820337 -0.15492065 -0.24711438
0.16321884 0.17276658 0.021977078 0.42284465 -0.41883418 0.039016582 0.009406068 -0.14049673
-0.19161926 -0.09897421 0.45493844 -0.09815958 -0.20749582 0.09850853 0.05635868 -0.052601382
0.4715086 -0.08737908 -0.10469819 0.09906274 -0.5396919 0.28440294 0.16088575 -0.08209088
0.29248324 0.0134499455 0.3895816 0.23123816 0.36420155 0.45038742 0.32323506 0.23075238
0.14387915 -0.49911582 0.12110181 -0.06207952 0.012841544 0.26694784 -0.045681715 0.46783394
-0.14418176 0.3651301 0.06428661 0.18765363 0.4071126 -0.2835843 -0.06705814 -0.038184833
0.15801801 -0.031724606 0.36190096 0.47629836 0.14877062 0.25038785 0.45981935 -0.02860641

fc.3.weight f4 [32, 64]
00000000: 96f0 e9be ee2b edbe 2aa9 643d f0f7 f7bd
00000010: a3c6 41be 164b 8bbe 280b 67be b268 eebb
00000020: e7ea b6be 9b9e 55be fd0e a7be fed5 c3bd
00000030: 685e d83d 4eb7 82be a285 7cbd 897e 6ebd
00000040: 88da b9bc 36e2 45be 092e b0bc 991f 81bd
00000050: b730 733d 464f 843d 4298 e1be 59b3 3a3e
00000060: 2131 2abd 4ea0 dcbd 69e3 3239 1583 c7be
00000070: 34a3 883e 13f4 83be 0a60 d5be 9778 00be
00000080: c5fb 99be 0195 163c 590b 0fbe e6fa afbe
00000090: 03ab 9f3c 201e 36bd 4821 0bbe cc8f b9be
000000a0: 7079 dbbe f0d1 ab3e 48ff 61be 289c 69be
000000b0: 12b0 673d 95a6 63be e104 0abe e779 c2bd
000000c0: b38c 3bbe e276 e33c 29f7 90be f5bc bdbe
000000d0: d479 4fbd 34a2 4dbc 3945 12be d4a5 153e
000000e0: 37f2 a4be 0ff0 65bd 128f 23be 56f2 91bc
000000f0: cd49 5d3e cf9a 98be 326b f6bd 6646 abbd
00000100: ba90 c43c 66cd e5bc 9fee f33d 6248 a03b
00000110: dd7c ae3d b5c7 3fbd 7530 c3be 7b8e e7be
00000120: f0d7 15bc c817 9d3c 4070 0fbe c9d4 fb3d
00000130: 390c 02bf df40 08be 2371 54be 214f 8dbe
00000140: 2a6e 313d 268a 8cbe 8170 cb3d fb12 8cbd
00000150: dac7 d8bd 9aab 713d e6ed 003e df2f 7f3b
00000160: 0e52 b23d fdfc 99be dc42 33be a3d4 92bd
00000170: 0037 923e eacc 413d ac93 7a3c d995 8bbe
00000180: 76f4 803d 9b14 aabd ed5c 303d 16fb e23c
00000190: e28c 063e 1ead d23d 6751 9e3d 818b 853d
000001a0: 1908 4f3c 4904 c8bd 7ce9 90bb 2b97 7cbe
000001b0: 1697 2abe 3a5d a23c 6262 19bd 53a2 b13d
000001c0: 0ac8 f7be f06d 1f3e fea6 c9bd de34 9b3b
000001d0: d283 a03d 05c3 c8be 5d9d 9abe 191f 17be
000001e0: 9372 0fbd 62b8 38be 7fee 8d3d 6eef a63d
000001f0: f52b 153d cbe5 5b3d 318b 963d 2b00 d7bd
00000200: 7ca9 013c 3b7e f83d c8a7 eaba b182 30bc
00000210: 58b5 ca3d ca3d 2bba bb6b d33d 010d 8c3d
00000220: bfbd f23d 8d23 213e b287 f63c 5b96 863d
00000230: cee3 1bbe 3c41 523d caf0 eb3d 4940 023d
00000240: 213f afbd c4ee fbbb 1748 193d f250 2d3e
00000250: 6234 af3d d4c1 77bc 52c7 39bd 5741 bb3d
00000260: 5429 06bd 8b35 273d 9c6f 103d e308 113d
00000270: fd0b feba 7723 ba3c 66b2 b83c 7181 afbc
00000280: 5bbe 063e aad8 803d a606 c93d 619f 133e
00000290: 2621 233e 8e26 453e 5ea1 73bc a012 263e
000002a0: 5e15 1e3e faef 843d 32a2 783d 3100 af3d
000002b0: 1294 c6ba 7a32 0cbc 2e6c 48bd a656 adbd
000002c0: 02c1 003e b176 dd3b 376b 893d f1f3 66bc
000002d0: 1338 85bd cfb0 a43d a2ce bd3d ae58 ea3c
000002e0: a345 cdbc dd15 293c 81f2 31bd 0ed1 683c
000002f0: 2ae5 8dbd 2536 043e 9eb8 633c 8269 d13c
00000300: cad9 de3d f2d9 49bd bafd 013e 4c7f e8bc
00000310: 8d22 773d b826 6c3d 5ee1 1b3e 2624 003e
00000320: 86ee 59bd 12df 323e e367 eb3d 4647 45bb
00000330: e32c 35be d9bf 1b3e 7aed 043e c1ed 6dbc
00000340: d1d6 cdbd 3133 36bc 25b6 103c 98fb 953d
00000350: 31e9 c6bd 845e fd3d b8d3 cf3c f76c 78bd
00000360: a399 193c 53dd 043e 2baf 4abd f7ae a13d
00000370: 9ddc 9ebd b095 2d3b 0e1e 2fbc ebe2 343e
00000380: bc0d 86bd f286 353e 0ada 56bd c82d 5fbd
00000390: e447 edbc 09d0 f33c e140 cabc 1b9d dc3d
000003a0: ac63 353d 3051 e4bd bdc6 4d3c d88d 1cbd
000003b0: 1093 813d f5b7 49bd 1827 2c3e f56a 033e
000003c0: 13a3 3d3d f9e3 ff3c 4b5b 18bd 160c fc3d
000003d0: 1288 c73c 7094 123e 93f1 80bd becc 0c3e
000003e0: 4917 ffbc 6289 6dbd 08b5 48bd b746 f03c
000003f0: a37f 94bd 0195 88bb 2424 a83c 472b ae3d
-0.45691365 -0.46322578 0.05582539 -0.12107837 -0.1892343 -0.27205724 -0.2256285 -0.0072756642
-0.3572609 -0.20861284 -0.32628623 -0.095623 0.105648816 -0.25530475 -0.06165088 -0.058226142
-0.022687212 -0.19324574 -0.021506326 -0.06304855 0.05937263 0.06460433 -0.44061476 0.18232478
-0.04155076 -0.10772763 0.0001706012 -0.38967195 0.26687014 -0.2577215 -0.41674834 -0.12546001
-0.30074897 0.009190799 -0.13969173 -0.34371108 0.019490724 -0.044462323 -0.13586915 -0.3624252
-0.42866087 0.33558607 -0.22070038 -0.22813475 0.056564398 -0.22231515 -0.13478424 -0.09495907
-0.18315391 0.027766649 -0.28313568 -0.37058225 -0.050653294 -0.012550879 -0.14284219 0.1461404
-0.32216045 -0.05613714 -0.15972546 -0.01781575 0.21610184 -0.2980561 -0.12032165 -0.08363037
0.023994792 -0.028052043 0.11910748 0.004891441 0.085199095 -0.046821315 -0.38122907 -0.4522589
-0.009145722 0.019176379 -0.14007664 0.12296445 -0.507999 -0.13305996 -0.20746283 -0.27599433
0.04331795 -0.2744915 0.09933568 -0.06839558 -0.10584994 0.059001543 0.12590751 0.0038938446
0.08707057 -0.30075827 -0.17505974 -0.071694635 0.28557587 0.047314562 0.015293997 -0.27262762
0.06296627 -0.083047114 0.04305737 0.027707618 0.1313968 0.10286926 0.0773037 0.06520749
0.012636208 -0.09766442 -0.0044223648 -0.24667041 -0.16659197 0.019819845 -0.03744734 0.08673539
-0.48394805 0.15569282 -0.09846304 0.004736527 0.07837643 -0.39211288 -0.30198184 -0.14757957
-0.035021376 -0.18039086 0.06930255 0.08151136 0.036418874 0.053685945 0.073507674 -0.10498079
0.007913943 0.121334516 -0.0017902786 -0.010773347 0.0989787 -0.00065323396 0.10323282 0.06838418
0.118525974 0.15736218 0.030094001 0.06571647 -0.1522362 0.051331744 0.11520536 0.03179959
-0.08556963 -0.007688375 0.037422266 0.1692541 0.08554913 -0.015121896 -0.045356102 0.09143322
-0.032754257 0.040822547 0.03526269 0.035408866 -0.0019382235 0.02272199 0.022546005 -0.021424027
0.13158552 0.062913254 0.09815721 0.14416267 0.15930614 0.19252989 -0.014870016 0.16218042
0.15437838 0.064910844 0.060701557 0.085449584 -0.001515033 -0.008556956 -0.048931293 -0.084637925
0.12573627 0.006758534 0.06709903 -0.014096246 -0.06504836 0.08041536 0.09267928 0.028606739
-0.02505762 0.010320154 -0.04344416 0.014209999 -0.06928475 0.1291128 0.013898997 0.025563005
0.10881384 -0.049280114 0.12694445 -0.028381012 0.060335685 0.057654113 0.1522269 0.1251379
-0.05320599 0.17467907 0.11494424 -0.0030102297 -0.17692904 0.15209903 0.12981215 -0.014522017
-0.100507386 -0.011120603 0.008832489 0.07323378 -0.097124465 0.12371543 0.02536951 -0.060650792
0.009375009 0.12975053 -0.04948346 0.078947 -0.077569224 0.0026486926 -0.010688318 0.17664687
-0.065455884 0.17727259 -0.052454032 -0.05448702 -0.028964944 0.029762285 -0.02468914 0.10772153
0.044284508 -0.11148298 0.01255959 -0.03822121 0.06326878 -0.0492477 0.16811788 0.1283377
0.046298098 0.031236636 -0.03719644 0.12306993 0.024356876 0.14314437 -0.062960766 0.13749978
-0.031139033 -0.057992347 -0.04900077 0.029330594 -0.07250907 -0.0041681533 0.020525046 0.08504348

fc.3.bias f4 [32]
00000000: 33c9 213f ae4c a23e c588 8d3f 0be1 733f
00000010: c2dd 0c3f e765 813f b78c 5c3f 06e2 ec3e
00000020: 1f6a e83e 1c3d 783f c6ba 7d3f ef62 ea3e
00000030: c4b3 e93e 85a2 b83e eafd 993f 48d7 4c3f
00000040: a743 1c3f 9449 4d3f 2904 863f 1abc 6c3f
00000050: 079a 653f b329 be3e 1c30 e03f 98dc 953e
00000060: 9436 613f 76ce 09be 66b2 8c3f 68d3 933f
00000070: 8366 0d3f 714f efbd 9149 acbf 3bd7 8dbe
0.6319763 0.31699127 1.1057364 0.95265263 0.55025876 1.0109223 0.86152214 0.46266192
0.45393464 0.96968246 0.9911312 0.45778605 0.45644963 0.36061493 1.2030613 0.80015993
0.6104073 0.80190396 1.047002 0.9247452 0.8968815 0.3714119 1.7514682 0.29269862
0.87973905 -0.13457665 1.0991943 1.1548891 0.55234545 -0.11685074 -1.3459951 -0.2770327

fc.5.weight f4 [1, 32]
00000000: 57a0 52bf af98 d8be 188d 923e 47ee bc3e
00000010: b78c 69bf 53eb d23e ef4b 893e 9b2d 04bf
00000020: bc81 30bf 268b c13e 840c d33e 2cd9 1bbf
00000030: 4d15 49bf bc3e 31bf dc62 c73e 87ff a83e
00000040: 12da 5ebf a570 a03e 1b5e c63e ed9e 5d3e
00000050: 0dac a33e ca4c 23bf 3b67 5f3f 738e d83e
00000060: 6e0f ae3e 564a e0be b0eb a63e f786 973e
00000070: a4b2 39bf 192d 0abd e8cd 43bf 7a61 2abf
-0.8227591 -0.42303988 0.2862327 0.3690054 -0.9123034 0.41195163 0.26815745 -0.5163209
-0.6894796 0.37801474 0.41220486 -0.60878253 -0.7854813 -0.6923635 0.3894261 0.33007452
-0.870515 0.3133594 0.38743672 0.21642657 0.31967202 -0.63789046 0.8726689 0.4229618
0.33996147 -0.43806714 0.3260169 0.29595158 -0.7253821 -0.033734415 -0.76486063 -0.6655499
